LeNet/LeNetModel/model_origin.pkl (torch, 180935 bytes, 10 tensors)

Convolution1.0.weight f4 [6, 1, 5, 5]
0	0x3dc07cec	0.09398827
1	0x3dac46c1	0.08411933
2	0xbe7d5f55	-0.24743398
3	0xbe8affb9	-0.27148226
4	0xbec9f41e	-0.3944406
5	0x3f2da3e1	0.67828184
6	0x3e3f09c8	0.18656075
7	0x3d892782	0.06696989
8	0x3ea1dbfd	0.3161315
9	0x3f2fd121	0.6867848
10	0x3f714588	0.9424672
11	0x3f4e867a	0.80673945
12	0x3ef602b1	0.48048928
13	0x3f2eb26a	0.6824099
14	0x3fa13beb	1.259641
15	0x3f0a1378	0.53935957
16	0xbde58244	-0.11206487
17	0xbe6bf76f	-0.23043607
18	0x3f1ce057	0.61279815
19	0x3ef5e367	0.48025057
20	0xbbc60386	-0.0060429005
21	0xbecff845	-0.40619102
22	0xbedec863	-0.43512258
23	0xbe55cdf6	-0.20879349
24	0xbe3bd759	-0.18343867
25	0xbf58a47a	-0.8462597
26	0x3b669c96	0.0035188547
27	0xbe1d1b9d	-0.15342565
28	0xbbee40a7	-0.0072708908
29	0xbf7d02f4	-0.9883263
30	0xbca1d0b6	-0.019752841
31	0x3f6a6b1c	0.91569686
32	0x3ef22e73	0.47301063
33	0x3d9ea4c2	0.07746269
34	0x3e385e2e	0.18004677
35	0x3e72bb31	0.2370422
36	0x3f59ffe7	0.851561
37	0x3e7343b5	0.23756297
38	0xbea4c694	-0.32182753
39	0x3f4aedea	0.7926928
40	0x3e29bc0d	0.16575642
41	0x3e70533e	0.23469254
42	0x3ef13fd6	0.47119015
43	0x3ea03433	0.31289825
44	0x3f280e2f	0.6564664
45	0xbeffddf8	-0.49974036
46	0xbed5e7bf	-0.4177837
47	0xbdcd50ee	-0.10025202
48	0xbf1b67c6	-0.6070522
49	0xbfd26be9	-1.6439182
50	0xbeeccb2c	-0.46248758
51	0xbe78093b	-0.24222271
52	0xbe66ba56	-0.22532019
53	0xbef13544	-0.4711095
54	0xbf474682	-0.7784196
55	0xbf7651c5	-0.9621852
56	0x3d745489	0.05965093
57	0x3e36b426	0.17842159
58	0x3e5f5620	0.21810198
59	0xbdb6040e	-0.08887492
60	0xbf89c2ce	-1.0762575
61	0x3f1ddcee	0.61665237
62	0x3f33cf4e	0.70238197
63	0x3eb3f4bb	0.35147652
64	0x3f14711c	0.5798509
65	0xbed0f203	-0.4080964
66	0x3f981f34	1.1884522
67	0x3f3749c3	0.71596926
68	0x3f205b4f	0.62639326
69	0x3f864e43	1.0492634
70	0xbe3e8336	-0.1860474
71	0x3e9b5116	0.303353
72	0xbf10dbe0	-0.565855
73	0xbebb3ef6	-0.36571473
74	0x3e80df81	0.2517052
75	0x3f0cbe1f	0.549776
76	0x3d5475a5	0.051870007
77	0x3e2b1052	0.16705444
78	0xbedae016	-0.4274909
79	0xbec96809	-0.39337185
80	0xbe1a6f2d	-0.15081473
81	0xbec9e56e	-0.39432853
82	0xbef92447	-0.4866049
83	0xbf0946ff	-0.53623956
84	0xbf086d81	-0.5329209
85	0x3dd53563	0.10410573
86	0xbf46a8c6	-0.7760128
87	0xbf61eb85	-0.8825
88	0xbf0e5454	-0.55597425
89	0x3d2dfddb	0.042478424
90	0x3e97b691	0.29631475
91	0xbfaa60e1	-1.3310815
92	0xbf1c117d	-0.60964185
93	0xbe66be0b	-0.22533433
94	0x3a572ee0	0.0008208584
95	0x3f8d20f5	1.1025683
96	0x3dad96c1	0.0847602
97	0x3f27b137	0.65504783
98	0x3e805106	0.25061816
99	0x3ee75d96	0.45188588
100	0xbe622a6b	-0.22086494
101	0x3dcf84c8	0.10132748
102	0x3ea1a155	0.315684
103	0x3f1eb055	0.6198781
104	0xbe2051e6	-0.15656242
105	0x3ea8ca97	0.32967064
106	0x3ec3ca52	0.38240296
107	0x3dd74534	0.10511246
108	0x3f412123	0.7544119
109	0x3e9cea88	0.30647683
110	0x3ec067c7	0.37579176
111	0x3f4497d9	0.767942
112	0x3f087354	0.53300977
113	0x3f1b691a	0.6070725
114	0x3efa5936	0.48896188
115	0xbeef1a6f	-0.46699855
116	0x3f45422f	0.77054113
117	0x3ebf6734	0.37383425
118	0x3ed39205	0.41322342
119	0xbec184c2	-0.377966
120	0xbeba50a6	-0.36389655
121	0x3e4d117d	0.20026202
122	0xbe10b534	-0.14131624
123	0xbec9ed7d	-0.39439002
124	0xbf93d0a4	-1.1548047
125	0xbd80d73a	-0.06291051
126	0xbdfd83fd	-0.123786904
127	0x3d23d620	0.039999127
128	0x3ec01f47	0.37523863
129	0x3f5baed6	0.85813653
130	0xbe794218	-0.24341619
131	0x3e22d175	0.15900214
132	0x3ebd7252	0.37001282
133	0x3f1deb58	0.6168723
134	0x3f6e3e42	0.9306375
135	0xbe2721b0	-0.16321445
136	0x3ee04509	0.4380267
137	0x3f216b13	0.6305401
138	0x3ef93139	0.48670366
139	0x3eb2688f	0.34845397
140	0xbe66756b	-0.22505729
141	0x3dd72e76	0.105069086
142	0xbf0247dd	-0.50890905
143	0xbe2c5271	-0.16828324
144	0xbe644097	-0.22290264
145	0xbe2d5320	-0.16926241
146	0xbf434fc8	-0.7629361
147	0xbf4c8fca	-0.79906905
148	0xbf131a48	-0.57461977
149	0xbeac6eb9	-0.33678225

Convolution1.0.bias f4 [6]
0	0xbecdd660	-0.40202618
1	0xbfb21d3e	-1.3915174
2	0xbfaec4e7	-1.365384
3	0x3ec0ef74	0.37682688
4	0xbf517544	-0.8181956
5	0xc00d7b8d	-2.210666

Convolution2.0.weight f4 [16, 6, 5, 5]
0	0xbe51b608	-0.20479596
1	0x3d9fb9c1	0.077991016
2	0x3eb21e9e	0.34788984
3	0x3e60aff0	0.21942115
4	0xbdbb686a	-0.09150775
5	0xbddf12db	-0.10892268
6	0xbdc16e63	-0.09444883
7	0xbe70cc64	-0.23515469
8	0xbe99dae1	-0.30049804
9	0xbe152552	-0.14565018
10	0xbea1d493	-0.31607494
11	0xbf06ce07	-0.5265812
12	0xbee3a666	-0.4446289
13	0xbe2a21e7	-0.16614495
14	0xbe3eec39	-0.186448
15	0xbd706942	-0.05869413
16	0xbe584397	-0.21119533
17	0xbd8b2783	-0.06794646
18	0x3db15e5e	0.08660577
19	0xbdd53a9e	-0.10411571
20	0x3e08e947	0.13370238
21	0x3e0a912c	0.13531941
22	0xbd6c22c4	-0.057650343
23	0xbde428a5	-0.11140565
24	0xbddc1af6	-0.1074733
25	0x3e16c1c0	0.14722347
26	0x3dfc08b6	0.12306349
27	0xbd435882	-0.04769183
28	0xbdf3ec38	-0.119102895
29	0xbeab3b20	-0.33443546
30	0x3e139b88	0.14414799
31	0xbc81ec65	-0.015859792
32	0xbc392762	-0.0113008935
33	0xbe20b9ce	-0.15695879
34	0xbe9ff622	-0.31242472
35	0xbe039dc2	-0.12853149
36	0xbe883d6b	-0.26609358
37	0xbf04ed31	-0.51924425
38	0x3cf094cf	0.029367832
39	0x3cf6bcb0	0.03011927
40	0x3eef06c4	0.4668485
41	0x3eacd43a	0.33755666
42	0x3f19ec7e	0.60126483
43	0x3f3c2754	0.7349751
44	0x3da4db4c	0.0804964
45	0x3f03963c	0.51401114
46	0x3e60d2cb	0.21955411
47	0x3e842842	0.25811964
48	0xbdd31f00	-0.10308647
49	0xbe1b710f	-0.15179847
50	0xbe8b5e3d	-0.27220336
51	0x3e8462f2	0.2585674
52	0x3eca391b	0.39496693
53	0x3e14be74	0.14525777
54	0xbe915c71	-0.2839084
55	0xbd87e8ff	-0.06636237
56	0xbdb59a50	-0.088673234
57	0xbe9731aa	-0.29530078
58	0x3bd119e0	0.0063812584
59	0x3e2e5d81	0.17027856
60	0xbe8ecc2a	-0.2789014
61	0xbefaf5f1	-0.49015763
62	0xbcb39088	-0.021919504
63	0x3f066661	0.5249997
64	0x3e1df153	0.15424089
65	0x3f1946b9	0.5987354
66	0x3f67be50	0.9052477
67	0x3f5fdec1	0.8744927
68	0x3f107ece	0.5644349
69	0x3e9d4ad6	0.30721158
70	0xbe91c2bd	-0.28468886
71	0xbdc9c924	-0.09852818
72	0xbee2f579	-0.44327906
73	0xbe8399af	-0.2570319
74	0x3d66710a	0.056260146
75	0x3d91c20f	0.07117092
76	0xbd3e5fc0	-0.046478033
77	0xbe02417e	-0.12720296
78	0xbc0c8730	-0.008577153
79	0x3e509f8b	0.20373361
80	0xbc540763	-0.012941214
81	0xbeaf890b	-0.34284243
82	0xbf074c6a	-0.52850974
83	0xbed4bdd3	-0.41551074
84	0xbe38160b	-0.17977159
85	0xbe15e96e	-0.14639828
86	0x3ea446a5	0.32085148
87	0xbb834e52	-0.0040071392
88	0xbf02c79e	-0.5108584
89	0xbf0fb2b8	-0.5613208
90	0xbf04b074	-0.51831746
91	0xbead9ab9	-0.33907107
92	0xbf34b216	-0.7058424
93	0xbee21b15	-0.44161287
94	0xbe4de799	-0.20107879
95	0xbf85da53	-1.0457252
96	0xbf6224db	-0.88337487
97	0xbf137cbe	-0.57612216
98	0xbeb7b65d	-0.3588132
99	0xbe2f6806	-0.17129526
100	0x3db59bd3	0.08867612
101	0x3e7b9afb	0.24570839
102	0x3edf4437	0.4360673
103	0x3e82ea2c	0.25569284
104	0xbcd2c56b	-0.025728902
105	0xbe101e04	-0.1407395
106	0xbc3fd4c5	-0.011708443
107	0x3da74a98	0.081685245
108	0xbdb06d6f	-0.08614623
109	0xbe72b173	-0.23700504
110	0xbe69b5ab	-0.22823207
111	0xbf07c12d	-0.5302914
112	0xbe71e285	-0.23621567
113	0x3c1be77a	0.0095156375
114	0xbdf61042	-0.1201482
115	0x3e8fc259	0.28077963
116	0x3b821811	0.003970154
117	0x3e20433b	0.15650646
118	0x3e9f3e8d	0.3110241
119	0xbd5d6f4a	-0.05406121
120	0x3e2d0ea5	0.16900118
121	0x3eb38b2e	0.35067123
122	0x3e96bfcc	0.29443204
123	0xbddbc26e	-0.10730444
124	0x3b980dda	0.004640323
125	0x3c0d533d	0.008625803
126	0x3d201ad6	0.039088093
127	0xbd8f7939	-0.07005543
128	0xbeb9fe30	-0.36326742
129	0xbeceec0f	-0.40414473
130	0xbd9a2c50	-0.07527983
131	0x3e658f0b	0.22417848
132	0x3e9a62f9	0.30153635
133	0xbebeb097	-0.37244102
134	0xbedd0090	-0.43164492
135	0xbee680f9	-0.45020273
136	0xbf2c5f8b	-0.67333287
137	0xbf1ab100	-0.6042633
138	0xbead68c4	-0.33868992
139	0xbd84fe37	-0.064938
140	0xbe5c2d74	-0.21501714
141	0xbd76856d	-0.06018584
142	0x3e87b37f	0.26504132
143	0x3ea9f3ad	0.33193722
144	0x3eb388d3	0.35065326
145	0x3f4bd187	0.7961659
146	0x3f91df54	1.1396279
147	0x3f2a0bdc	0.66424346
148	0x3ed7810a	0.42090636
149	0x3eb03b6e	0.3442034
150	0xbea31ab5	-0.31856313
151	0xbe9978c3	-0.29974946
152	0xbec55a72	-0.38545567
153	0xbeb20df4	-0.3477627
154	0xbeebf508	-0.46085382
155	0x3e0d20a1	0.13781978
156	0x395b7a20	0.00020930963
157	0xbe1c040f	-0.15235923
158	0x3e87b546	0.26505488
159	0x3e41cf97	0.18926845
160	0xbd6535a4	-0.05595936
161	0x3c60d796	0.013723275
162	0xbc535f85	-0.012901192
163	0x3e39ea1e	0.18155715
164	0x3ea6e8f1	0.32599595
165	0x3c929d20	0.017897189
166	0xbe843bf7	-0.25827
167	0x3d9b2e92	0.07577242
168	0x3e6604da	0.22462788
169	0x3e621767	0.2207924
170	0xbd1fe8c9	-0.03904036
171	0xbf062cef	-0.52412313
172	0xbea7d803	-0.3278199
173	0xbddf1784	-0.10893157
174	0xbe2f491f	-0.17117737
175	0xbd5efd0c	-0.054440543
176	0xbe20a17f	-0.15686606
177	0xbe80a9f7	-0.25129673
178	0xbe200bbd	-0.15629478
179	0xbe2b5857	-0.16732918
180	0x3e2b0021	0.16699268
181	0x3e667e5b	0.22509138
182	0x3e8cfd7c	0.27537143
183	0x3f02e1ad	0.51125604
184	0x3ec6cdd5	0.38828912
185	0x3d16db17	0.036830034
186	0x3df27dbc	0.11840388
187	0x3dfd546f	0.1236962
188	0x3eade3b6	0.33962792
189	0x3ea83bb8	0.32858062
190	0xbe658b2f	-0.22416376
191	0xbd90a573	-0.07062807
192	0x3d4d6333	0.050143432
193	0x3e7121d7	0.23548065
194	0x3dc4682d	0.095901825
195	0xbd78e361	-0.06076372
196	0xbe612f95	-0.21990807
197	0xbdf8d6ff	-0.12150382
198	0xbea38012	-0.31933647
199	0xbd7ac847	-0.061226156
200	0xbd28869f	-0.04114401
201	0xbda10cfb	-0.07863804
202	0xbd4d1807	-0.050071742
203	0x3dcbe07f	0.099549286
204	0x3d848630	0.06470907
205	0x3d11cda2	0.035596497
206	0x3e047e8c	0.12938899
207	0x3e5f0a5e	0.21781299
208	0x3eb64bba	0.3560465
209	0x3f2c4603	0.6729433
210	0x3d353fa2	0.044250138
211	0x3c8abae5	0.016934821
212	0x3e612139	0.2198533
213	0x3e9ebef6	0.31005067
214	0x3e97b877	0.29632923
215	0xbdd9d5f9	-0.10636515
216	0xbe443268	-0.19159853
217	0x3cd2f606	0.025752079
218	0xbdd88f6e	-0.10574232
219	0xbcbb43a8	-0.02285941
220	0xbdc56773	-0.09638872
221	0xbe513aef	-0.20432638
222	0xbec7afc3	-0.39001283
223	0xbe6f2bdf	-0.23356579
224	0x3da19a05	0.07890705
225	0x3d2ed88b	0.04268698
226	0x3df325fe	0.11872481
227	0x3e5a7a8e	0.21335813
228	0x3e9da629	0.30790833
229	0x3edab671	0.42717317
230	0xbe8a29bb	-0.26984963
231	0xbef09d3d	-0.46994963
232	0xbef7e011	-0.48413137
233	0xbe418b29	-0.18900742
234	0xbec8f657	-0.39250442
235	0xbe9a7b49	-0.30172184
236	0xbea91e5c	-0.33030975
237	0xbe5cd146	-0.21564206
238	0xbeb5658b	-0.35429034
239	0xbedd1c8f	-0.4318585
240	0x3de6eaee	0.11275278
241	0xbdf84932	-0.12123336
242	0xbe69201a	-0.22766152
243	0xbe1579f8	-0.14597309
244	0xbe2520b5	-0.16125758
245	0x3c729b19	0.014807486
246	0xbd16684a	-0.03672055
247	0x3e7f0333	0.24903564
248	0x3e1e793a	0.15475932
249	0xbdc579af	-0.0964235
250	0xbe1f7bc0	-0.1557455
251	0xbe8d8ad4	-0.2764498
252	0xbe827b2b	-0.25484595
253	0xbe7db28f	-0.24775146
254	0xbea409f2	-0.32038838
255	0x3ea84c0f	0.32870528

Convolution2.0.bias f4 [16]
0	0xbecead32	-0.40366513
1	0xbe508949	-0.2036487
2	0xbde87da2	-0.113520876
3	0xbe8b4c5a	-0.2720669
4	0xbe748258	-0.23877847
5	0xbd77989c	-0.060448274
6	0xbe1f1a0e	-0.15537283
7	0xbe3abf65	-0.18237074
8	0xbe8482d5	-0.25881067
9	0xbe99a3d8	-0.30007815
10	0xbe97bf46	-0.29638118
11	0xbe5e2e4e	-0.21697351
12	0xbe8629a9	-0.2620366
13	0xbcb7afc5	-0.02242268
14	0xbe76416c	-0.24048394
15	0xbc5f663c	-0.013635214

Full_Connected.0.weight f4 [120, 256]
0	0xbd4fa4ba	-0.050694205
1	0xbdd53fd6	-0.10412566
2	0xbd0b6b9e	-0.03403818
3	0xbdb5eea1	-0.088834055
4	0x3d9d3d5a	0.076777175
5	0xbdbfd6fa	-0.093671754
6	0xbd807cdd	-0.06273816
7	0xbc43a7f4	-0.011941899
8	0x3cef4fca	0.029212851
9	0xbda8d1c4	-0.082431346
10	0xbc1401eb	-0.00903366
11	0x3e07697a	0.1322383
12	0xbd633e3b	-0.05547927
13	0xbe0a7000	-0.13519287
14	0xbd15928c	-0.03651671
15	0xbdf18d51	-0.11794532
16	0xbcdce850	-0.026966244
17	0xbe0ca592	-0.13735035
18	0x3deff1b9	0.11716027
19	0x3cbf39e1	0.023343029
20	0x3e085b87	0.13316165
21	0x3b099923	0.0020995818
22	0x3d99bcf6	0.075067446
23	0xbca315db	-0.019907882
24	0x3c783c24	0.015151057
25	0xbd9f99d7	-0.077930145
26	0x3d9c8ddc	0.07644245
27	0x3d5c0342	0.053714044
28	0xbde35789	-0.111006804
29	0xbd34069b	-0.043951612
30	0x3d4b192a	0.049584545
31	0x3dbcca6f	0.09218299
32	0xbe5782cf	-0.21045993
33	0xbd8ee3ff	-0.069770806
34	0xbe024eee	-0.12725422
35	0xbdeba9d8	-0.115070045
36	0x3db77b81	0.089591034
37	0xbdcd128f	-0.100133054
38	0xbdd47b68	-0.103751004
39	0x3d59f37f	0.05321073
40	0x3cbf86ca	0.023379702
41	0x3d771876	0.060326062
42	0xbd5b3482	-0.053516872
43	0x3de115af	0.10990464
44	0xbd027373	-0.031848382
45	0xbdad7029	-0.084686585
46	0x3d68e6a0	0.056860566
47	0x3cc7abca	0.024373908
48	0x3ca12d57	0.01967494
49	0xbca11c32	-0.019666765
50	0xbe0f580d	-0.13998432
51	0xbb3fd8f2	-0.0029273597
52	0x3e017ab7	0.12644468
53	0xbd915186	-0.070956275
54	0xbe315c5f	-0.17320393
55	0x3ce9d98a	0.028546114
56	0x3d8fd74e	0.07023488
57	0xbd319726	-0.043357037
58	0xbcafd8b9	-0.021465646
59	0x3d680286	0.05664303
60	0xbd29a90d	-0.041420985
61	0xbd7c1dc0	-0.06155181
62	0x3c07c231	0.008286045
63	0x3d1fa85f	0.03897893
64	0x3e129e4c	0.14318198
65	0x3dd053af	0.101722114
66	0xbdcbe872	-0.09956445
67	0xbac4dd3c	-0.0015019546
68	0x3cc041d2	0.023468886
69	0xbd9349ce	-0.071918115
70	0xbc5c3d06	-0.0134422835
71	0x3dd69f09	0.10479552
72	0xbd558b97	-0.052135076
73	0x3da9db3d	0.082937695
74	0x3c66cd27	0.014086998
75	0x3de4f855	0.11180178
76	0x3d9e122f	0.07718312
77	0x3de03174	0.109469324
78	0x3d08fb71	0.03344292
79	0xbd6b069e	-0.057379358
80	0xbe13dcb3	-0.14439659
81	0xbdebc9e1	-0.11513115
82	0xbd947aa2	-0.07249953
83	0x3e0622d4	0.13099223
84	0x3e61c90d	0.22049351
85	0xbdb4ff0e	-0.0883771
86	0xbe00317a	-0.12518874
87	0xbd44b1e3	-0.04802121
88	0x3d84cdab	0.064845406
89	0xbdc24ac1	-0.094869144
90	0x3bce7dab	0.006301602
91	0x3dec9a72	0.115528956
92	0xbd4490b2	-0.047989555
93	0xbd8878cc	-0.06663665
94	0x3cf00390	0.029298574
95	0x3d5b94c3	0.053608667
96	0x3e830709	0.25591305
97	0x3e76e6dd	0.24111505
98	0x3e0db8ba	0.13839999
99	0x3d48bbd1	0.04900724
100	0x3d48b948	0.049004823
101	0xbc47e194	-0.012199778
102	0x3de8b013	0.113617085
103	0x3d13e821	0.036110047
104	0xbdc895e0	-0.097942114
105	0x3d8582e1	0.06519104
106	0x3cc30b20	0.023809016
107	0x3bffcbcb	0.0078062764
108	0x3d28c7c9	0.041206155
109	0x3d2affb3	0.04174776
110	0x3dc50d23	0.09621646
111	0xbd3d8df5	-0.04627796
112	0x3c187b36	0.0093067195
113	0x3d68c92a	0.05683247
114	0x3e61f2ec	0.22065324
115	0x3d991a69	0.074757405
116	0x3db15043	0.08657887
117	0x3d9c79f4	0.07640448
118	0xbd7dd537	-0.061970916
119	0x3d236a8b	0.03989653
120	0x3d463517	0.048390474
121	0x3c69ba72	0.014265643
122	0x3d307926	0.043084286
123	0xbce86791	-0.028369697
124	0xbd08b6cc	-0.033377454
125	0xbdfd14c7	-0.123574786
126	0x3cd8e5ba	0.02647673
127	0xbd6c5636	-0.057699405
128	0xbd902515	-0.07038323
129	0xbd385108	-0.044999152
130	0xbdb64b08	-0.0890103
131	0xbdf85fd8	-0.12127656
132	0x3d8cf0e1	0.068818815
133	0xbd16c3e8	-0.036807925
134	0xbd91abd7	-0.07112854
135	0x3ca4a4ad	0.020098055
136	0xbb7b0349	-0.0038301519
137	0x3d08c257	0.033388462
138	0x3c597dba	0.013274604
139	0x3ca17398	0.01970844
140	0xbd92c1b9	-0.07165856
141	0x3c620908	0.0137960985
142	0x3ca15df2	0.019698117
143	0x3d446570	0.0479483
144	0x3c9dbe19	0.019255685
145	0xbe27a708	-0.16372311
146	0xbe2bd42a	-0.16780153
147	0xbe897eca	-0.26854545
148	0x3e524d0d	0.20537205
149	0xbc967da5	-0.018370459
150	0xbd963eae	-0.07336174
151	0x3a9f6c6f	0.0012163053
152	0x3dd6cb6e	0.1048802
153	0x3dae8a25	0.08522443
154	0xbbf4046b	-0.0074468157
155	0xbd4234fd	-0.047413815
156	0x3c3b05eb	0.011414985
157	0xbc6c4f5d	-0.014423219
158	0xbcf95b3f	-0.030439017
159	0x3d4211b9	0.047380183
160	0xbe36584d	-0.17807122
161	0xbe801913	-0.2501913
162	0xbe2076e2	-0.1567035
163	0xbe284124	-0.16431099
164	0xbe1d2ec2	-0.15349868
165	0xbe29b83f	-0.1657419
166	0xbded660f	-0.11591732
167	0xbdbc7ee5	-0.09203891
168	0xbde29505	-0.110635795
169	0x3b9a0cae	0.0047012186
170	0xbd0bfd06	-0.03417685
171	0xbd634807	-0.055488613
172	0x3d2b3f16	0.04180821
173	0xbe10d728	-0.14144576
174	0x3d22c551	0.039738957
175	0x3d4900e9	0.049073134
176	0x3e070ab3	0.13187675
177	0x3e17e647	0.14833938
178	0x3e31a15d	0.17346711
179	0x3c27b1f9	0.010235303
180	0x3d9b34d9	0.07578439
181	0x3e16baeb	0.14719741
182	0x3d1f0820	0.038826108
183	0x3d071c8d	0.032986213
184	0x3def8749	0.116957255
185	0x3ce93697	0.028468413
186	0x3db4dcbe	0.08831166
187	0xbd1e3651	-0.03862602
188	0xbc0d0b13	-0.008608597
189	0xbdd33fe6	-0.10314922
190	0x3daf21e3	0.08551385
191	0xbcf1aafa	-0.029500473
192	0xbd773b9b	-0.06035958
193	0xbceecaad	-0.029149378
194	0x3d8ba674	0.06818858
195	0x3e3e970a	0.18612304
196	0x3d94a099	0.07257194
197	0xbc6d65ae	-0.014489574
198	0xbcefdaff	-0.02927923
199	0x3de0eb20	0.109823465
200	0x3e08c1fc	0.13355249
201	0xbcfcda0a	-0.030865688
202	0xbda9bf8e	-0.08288489
203	0x3db22f3f	0.08700418
204	0xbd844a85	-0.06459526
205	0xbd77edeb	-0.06052963
206	0xbd2b2ef9	-0.041792843
207	0x3d84461a	0.06458683
208	0xbd14f2e9	-0.03636447
209	0xbcc7e15a	-0.024399448
210	0x3dc9899c	0.098407
211	0xbdde7bac	-0.10863432
212	0xbda78721	-0.08180071
213	0xbe1f53af	-0.15559267
214	0xbd375bd7	-0.04476532
215	0xbdaad787	-0.0834189
216	0xbe27545f	-0.16340779
217	0xbda90f7f	-0.08254909
218	0xbd52b966	-0.05144634
219	0xbdd5470a	-0.1041394
220	0x3dad7ae5	0.08470706
221	0x3dac93d8	0.084266365
222	0x3be19548	0.006884251
223	0x3d7ea906	0.062172912
224	0xbda52149	-0.08062989
225	0xbe137349	-0.14399447
226	0x3d1d8b54	0.03846295
227	0x3e2b0c0e	0.16703817
228	0x3e8377e4	0.25677407
229	0x3d081e76	0.033232175
230	0xbe871d73	-0.26389655
231	0xbe6d2680	-0.23159218
232	0x3a9a2f9a	0.0011763454
233	0xbdedcdaa	-0.11611493
234	0xbde51bd4	-0.111869484
235	0x3d0856a9	0.03328577
236	0xbd6af807	-0.057365444
237	0xbdbc33e4	-0.09189585
238	0xbd43daf0	-0.047816217
239	0x3d22afb1	0.039718334
240	0xbdfb7a4b	-0.12279185
241	0x3e0fe15a	0.14050809
242	0x3e209915	0.15683396
243	0xbdae0485	-0.08496956
244	0xbdf21b96	-0.11821668
245	0xbe30ea80	-0.17276955
246	0x3d666b80	0.056254864
247	0xbd423b58	-0.047419876
248	0xbe659816	-0.22421297
249	0xbc702051	-0.014656142
250	0x3d41dfe1	0.04733265
251	0xbc8b72b2	-0.017022464
252	0x3c08e3f3	0.008355129
253	0xbd316adb	-0.043314796
254	0x3dcb0b2c	0.0991424
255	0x3c96a223	0.01838786

Full_Connected.0.bias f4 [120]
0	0xba082f6e	-0.0005195056
1	0xbd6a8150	-0.05725223
2	0xbc832572	-0.016009066
3	0xbc90ba6b	-0.017667016
4	0xbd046e08	-0.032331496
5	0xbd8ddf85	-0.069273986
6	0x3d9f5c94	0.0778133
7	0xbd7150be	-0.058914892
8	0xbbb4cef1	-0.0055178334
9	0xbd1f48ab	-0.03888766
10	0xbd322dc6	-0.043500684
11	0xbda6ac4a	-0.0813833
12	0xbd610f1b	-0.054946046
13	0xbd869de8	-0.06573087
14	0xbd1b1f95	-0.037871916
15	0xbd40ec25	-0.047100205
16	0xbd9000c5	-0.07031397
17	0xbc20c938	-0.009813599
18	0xbc5a5ce7	-0.013327814
19	0x3cc8f915	0.024532834
20	0xbc7ad6e5	-0.015310024
21	0xbd388d15	-0.04505642
22	0xbde3e6ca	-0.11128004
23	0xbd865ce5	-0.06560687
24	0xbbe559a9	-0.0069992137
25	0xbc13fe29	-0.0090327645
26	0xbbce68ae	-0.0062991
27	0xbdc3a3eb	-0.09552749
28	0x3d089961	0.0333494
29	0xbd1a9c05	-0.037746448
30	0xbc9ed1fd	-0.01938724
31	0x3d1a4ad0	0.037669003
32	0x3cc16188	0.023606077
33	0xbcb4d8e4	-0.022076078
34	0xbca3f66c	-0.020014964
35	0xbc81d664	-0.0158493
36	0xbd2fb5c8	-0.04289797
37	0xbd0c65a1	-0.03427661
38	0x3c9c5e1b	0.019087842
39	0x3a44b078	0.00075031025
40	0xbc8faa47	-0.01753725
41	0x3cfe5019	0.031044053
42	0xbd46acc3	-0.048504602
43	0xbb7161b1	-0.003683191
44	0xbd8c57d8	-0.06852692
45	0xbd622ec7	-0.05522039
46	0xbd864728	-0.06556541
47	0xbc71a682	-0.014749171
48	0xbc7cbd58	-0.015426002
49	0xbdc07b15	-0.09398476
50	0xbd90b6d0	-0.07066119
51	0xbc1bb708	-0.009504087
52	0x3bb8856e	0.0056311404
53	0x3c0346ef	0.008012517
54	0x3d56fd70	0.05248779
55	0xbdc4576e	-0.095869884
56	0xbca489d4	-0.020085253
57	0xbcf93918	-0.030422732
58	0xbd3c4601	-0.0459652
59	0xbd880342	-0.066412464
60	0xbdeed9d5	-0.11662642
61	0xbd0f3547	-0.03496292
62	0xbc268642	-0.0101638455
63	0xbb8419ff	-0.0040314193
64	0xbd88effe	-0.066864
65	0xbcc47930	-0.023983568
66	0xbda6b817	-0.08140581
67	0xbb7ae1bc	-0.003828152
68	0x3d4262de	0.04745757
69	0xbdcfe13b	-0.10150381
70	0x3cea59b1	0.028607221
71	0x3be5cd5e	0.007013007
72	0xbd6d3171	-0.05790848
73	0x3b77612f	0.0037747135
74	0xbd657de2	-0.056028254
75	0xbd44eab7	-0.048075404
76	0xbcd13142	-0.025536183
77	0x3c3089cd	0.010775042
78	0x3c4374ec	0.011929732
79	0xbd5e9db3	-0.054349612
80	0xbc798e2b	-0.015231649
81	0xbd097c54	-0.033565834
82	0xbd0f3637	-0.034963813
83	0xbd599750	-0.05312282
84	0xbb29ce65	-0.0025910374
85	0xbd3b5700	-0.045737267
86	0xbd42fbb5	-0.047603328
87	0xbda7e540	-0.08198023
88	0xbdade930	-0.084917426
89	0xbd2fd0cc	-0.042923734
90	0xbd940956	-0.07228343
91	0xbdb3a148	-0.08770996
92	0xbbbb18f0	-0.00570976
93	0xbc0c78ae	-0.008573694
94	0xbd7229a0	-0.059121728
95	0xbd88a871	-0.06672753
96	0xbd177b73	-0.036982965
97	0xbdfd4013	-0.12365737
98	0xbc9bbb46	-0.019010197
99	0x3cedb153	0.029015219
100	0xbdc24cb0	-0.09487283
101	0xbd9740fc	-0.07385442
102	0xbbe8c076	-0.0071030213
103	0xbe082332	-0.13294676
104	0xbd0f0a48	-0.034921914
105	0xbdd0ce29	-0.10195572
106	0xbc04cb8e	-0.008105172
107	0xbd9f3863	-0.07774427
108	0xbc3c2f21	-0.011485846
109	0x3dcb8fb8	0.099395216
110	0xbddc88f0	-0.10768306
111	0xbd38671e	-0.045020215
112	0xbd6718a3	-0.05641998
113	0xbc600b93	-0.0136746345
114	0xbcd5c8d9	-0.026096748
115	0xbce6d9bd	-0.028179998
116	0xbd91d860	-0.071213484
117	0xbc974852	-0.018467102
118	0xbd6d54a7	-0.05794206
119	0x3c3ab122	0.011394771

Full_Connected.2.weight f4 [84, 120]
0	0x3d24d88f	0.04024559
1	0x3c803151	0.015648516
2	0xba2e8132	-0.0006656825
3	0xbcf836b4	-0.030299522
4	0xbcb13091	-0.021629604
5	0xbd1cf9bb	-0.0383241
6	0xbd82dd53	-0.063898705
7	0xbe2fa16a	-0.17151418
8	0xbd680a7e	-0.05665063
9	0xbd75d5be	-0.060018294
10	0xbcc26d49	-0.023733752
11	0xbbfb843f	-0.007675677
12	0x3d8ec951	0.06971992
13	0xbd86bf29	-0.0657943
14	0xbd8e08ad	-0.069352485
15	0xbdac0a5e	-0.08400415
16	0xbd640692	-0.05567033
17	0xbdcfcfe0	-0.10147071
18	0xbe151b09	-0.14561094
19	0x3c48e044	0.0122605
20	0xbbadc293	-0.005302736
21	0xbd5c3d23	-0.053769242
22	0xbda2ea46	-0.0795484
23	0xbd8dabc9	-0.06917531
24	0x3d066359	0.03280959
25	0x3d546447	0.051853444
26	0xbe16ac90	-0.14714265
27	0x3d06268d	0.03275161
28	0xbe014583	-0.12624173
29	0x3c6aabc1	0.014323176
30	0xbdf40bf6	-0.11916344
31	0xbde2368f	-0.110455625
32	0x3d3073d6	0.04307922
33	0xbd242a26	-0.04007926
34	0x3e611e50	0.2198422
35	0xbe476375	-0.19471534
36	0xbe1e3942	-0.1545153
37	0xbcb1eaf0	-0.021718472
38	0x3e0562c0	0.13025951
39	0xbd5c6515	-0.053807337
40	0xbd8eb428	-0.06967956
41	0xbdb482dc	-0.08814022
42	0x3e37739b	0.17915194
43	0x3c0f9f76	0.008766046
44	0xbd9c0817	-0.076187305
45	0xbd9526fd	-0.07282827
46	0xbda64dd1	-0.08120311
47	0xbe458a07	-0.19290935
48	0xbd5e290a	-0.054238357
49	0xbddf8ccf	-0.10915529
50	0xbe1ad905	-0.15121849
51	0xbd6a4176	-0.057191335
52	0xbc93f302	-0.018060211
53	0xbde577b8	-0.11204475
54	0x3cdf6cee	0.027273621
55	0xbdf7bc18	-0.12096423
56	0x3bedfb75	0.007262642
57	0x3e140310	0.14454293
58	0xbd86a513	-0.06574454
59	0xbe0f97d1	-0.14022757
60	0xbe2ce3e3	-0.16883807
61	0xbd1bc1a0	-0.038026452
62	0xbdadb739	-0.084822126
63	0xbd095249	-0.03352574
64	0xbc2bde37	-0.010489992
65	0xbd6d1bc6	-0.057887815
66	0xbdea4b26	-0.11440115
67	0xbe3049cd	-0.17215653
68	0xbd89c3de	-0.06726812
69	0xbd2632f5	-0.04057594
70	0xbd9d5f39	-0.07684178
71	0xbdf14987	-0.11781602
72	0x3cdcdf33	0.026961898
73	0xbbb7a838	-0.00560477
74	0xbdb54a3e	-0.08852051
75	0x3cd1c10a	0.025604744
76	0xbdd81fd4	-0.10552946
77	0xbd9f6832	-0.077835456
78	0xbe31dc5d	-0.17369218
79	0xbd174246	-0.036928438
80	0x3e02089f	0.12698601
81	0xbe0d7456	-0.1381391
82	0xbd434359	-0.04767165
83	0xbe452710	-0.19253182
84	0x3cade3f2	0.021226857
85	0x3e0a72ce	0.13520357
86	0xbda1c845	-0.078995265
87	0xbe3d0c8a	-0.18461815
88	0xbce0580a	-0.02738573
89	0xbda98c85	-0.08278755
90	0xbd67d26d	-0.056597162
91	0xbdf2e2c3	-0.118596576
92	0x3c96a56d	0.018389428
93	0xbc5e0648	-0.013551302
94	0xbc6c9ee4	-0.014442179
95	0x3d43d6d7	0.04781231
96	0xbe21d4fc	-0.15803903
97	0xbdcadd65	-0.09905509
98	0xbd78c811	-0.060737673
99	0xbe42f285	-0.19037826
100	0xbcd39f4c	-0.025832795
101	0xbc29b34f	-0.010357692
102	0x3d2e3601	0.04253197
103	0xbe17afa3	-0.14813094
104	0x3d8ddbe8	0.069267094
105	0xbe1b9b71	-0.15196015
106	0xbe0d278d	-0.13784619
107	0xbd1dddb1	-0.0385415
108	0xbd997b06	-0.07494168
109	0x3db58f95	0.08865277
110	0xbdb43f56	-0.08801143
111	0x3c30f21e	0.010799913
112	0x3c96ed30	0.018423647
113	0xbdc6d309	-0.097082205
114	0xbdb74e6b	-0.08950504
115	0x3e1f3149	0.15546145
116	0xbe080c22	-0.13285878
117	0xbcfacde9	-0.030615764
118	0x3cd890dd	0.026436264
119	0x3c368b21	0.011141569
120	0x3dedd97b	0.11613747
121	0xbdd86517	-0.10566156
122	0xbd84740a	-0.06467445
123	0xbe5a50b8	-0.21319854
124	0x3d785344	0.060626283
125	0xbe111cd2	-0.1417115
126	0xbe83d164	-0.2574569
127	0xbda78dbb	-0.0818133
128	0xbdd8b049	-0.10580499
129	0x3e18f672	0.14937761
130	0xbdf66d37	-0.1203255
131	0xbc394adf	-0.011309355
132	0xbd0431a8	-0.03227392
133	0xbe380109	-0.17969145
134	0x3c460351	0.012085752
135	0xbdc3bf8b	-0.09558018
136	0x3cc7ae6a	0.02437516
137	0xbcdb26c3	-0.026751881
138	0xbe1413bf	-0.14460658
139	0x3a3e1d2b	0.0007252271
140	0xbe592948	-0.21207154
141	0xbe904605	-0.2817842
142	0xbdc6b4fd	-0.097024895
143	0x3bb5b128	0.0055448003
144	0xbe97f060	-0.2967558
145	0x3e6617f3	0.22470073
146	0xbdd03ed9	-0.10168237
147	0x3e1c7c1a	0.15281716
148	0x3ddab081	0.10678197
149	0xbc946e38	-0.018118963
150	0xbca4d92a	-0.020123083
151	0x3d3aa04f	0.04556304
152	0xbdd7aea8	-0.1053136
153	0xbe2c1a61	-0.16806938
154	0x3e89672c	0.26836526
155	0xbe779d1c	-0.24181026
156	0xbd1da3a8	-0.038486153
157	0xbddace7a	-0.106839135
158	0x3eb4506d	0.3521761
159	0xbe1c362f	-0.15255044
160	0xbe03a274	-0.1285494
161	0xbd2a1d8d	-0.041532088
162	0x3e88434c	0.26613843
163	0xbc079de7	-0.008277393
164	0x3c89014c	0.016724251
165	0xbcb7323f	-0.022362826
166	0x3d00000d	0.03125005
167	0xbce7e664	-0.028308101
168	0x3e1d216f	0.15344785
169	0x3d6a7e55	0.057249386
170	0xbe37e222	-0.17957357
171	0xbdd7d110	-0.105379224
172	0xbda58353	-0.08081689
173	0x3c21ab5e	0.009867517
174	0xbcf5f8d1	-0.030025871
175	0xbd6161e1	-0.055024985
176	0x3d731aa8	0.059351593
177	0x3d84f06f	0.064911716
178	0x3cb41833	0.021984195
179	0x3d59fec4	0.05322148
180	0x3c7b0137	0.015320114
181	0x3d776761	0.060401324
182	0xbd0ea088	-0.034821063
183	0xbb389127	-0.002816269
184	0x3d20b992	0.039239474
185	0xbe2cab2f	-0.16862176
186	0xbc2efdb9	-0.010680609
187	0xbe6dcbc8	-0.23222268
188	0xbe4768f0	-0.19473624
189	0xbe669b36	-0.22520146
190	0xbe48f589	-0.19624914
191	0xbda100b5	-0.07861463
192	0x3e47566a	0.19466558
193	0xbd9e4794	-0.07728496
194	0xbde620af	-0.11236703
195	0xbe2f3ed0	-0.17113805
196	0xbdbd0929	-0.09230263
197	0xbd752fcb	-0.059860032
198	0xbe5df335	-0.21674807
199	0x3bbd03b1	0.0057682623
200	0x3de12333	0.10993042
201	0xbdeb737c	-0.11496636
202	0x3e149c33	0.1451271
203	0xbe90c27b	-0.28273377
204	0xbdb44af7	-0.08803361
205	0x3e249060	0.160707
206	0xbdecbe18	-0.11559695
207	0xbdbe0bda	-0.09279604
208	0xbd822f86	-0.063567206
209	0xbdf5c424	-0.120003015
210	0x3df9ec2e	0.12203251
211	0x3dd1b443	0.1023946
212	0x3ec9d210	0.39418077
213	0x3c90dbc3	0.017682916
214	0xbeac6afc	-0.33675373
215	0x3e016470	0.1263597
216	0x3d200820	0.03907025
217	0xbe1f0fde	-0.15533397
218	0xbe1bec48	-0.15226853
219	0xbeb97a3f	-0.3622608
220	0xbdebf8f0	-0.115220904
221	0x3e514c1f	0.20439194
222	0xbe1456bb	-0.1448621
223	0xbe3305c6	-0.17482671
224	0x3da61a39	0.0811047
225	0xbda3b313	-0.0799314
226	0xbc2b533a	-0.0104568545
227	0x3bd04674	0.006356055
228	0xbe36d103	-0.17853169
229	0x3e7a3843	0.24435525
230	0xbcf62984	-0.030049093
231	0xbdf650e2	-0.12027146
232	0xbe03b464	-0.12861782
233	0xbe19a0b5	-0.15002711
234	0xbdf2002e	-0.118164405
235	0x3dec4f07	0.11538511
236	0xbdccb279	-0.099949785
237	0x3cc0a949	0.023518221
238	0x3e8404b5	0.2578484
239	0x3d82fab1	0.06395472
240	0x3da00d09	0.07814986
241	0xbd4036ed	-0.04692738
242	0xbdf2b97e	-0.11851786
243	0xbe0f5615	-0.13997681
244	0x3da4695d	0.08027909
245	0x3dad943a	0.084755376
246	0xbe640979	-0.22269239
247	0xbd6f97f9	-0.05849454
248	0xbdebe211	-0.11517728
249	0x3df43dd2	0.11925854
250	0xbda99d53	-0.0828196
251	0x3c924007	0.017852796
252	0xbd86e571	-0.06586731
253	0xbe016309	-0.12635435
254	0x3e3f1c6e	0.18663189
255	0xbd82a89a	-0.063798144

Full_Connected.2.bias f4 [84]
0	0x3d4a1f48	0.04934624
1	0x3e8cdd6d	0.27512684
2	0x3ddad9f1	0.106861
3	0x3e961122	0.29309946
4	0xbc1ef323	-0.009701523
5	0x3e274395	0.16334374
6	0x3e006a8f	0.12540649
7	0x3d37c601	0.044866566
8	0xbdacda5b	-0.084400855
9	0x3d8d9963	0.06914022
10	0x3d7eca40	0.0622046
11	0x3e074934	0.13211519
12	0x3dece0e2	0.115663305
13	0x3e825979	0.25458887
14	0x3e91542a	0.28384525
15	0x3e60f4e3	0.21968417
16	0x3db78cec	0.089624256
17	0x3e0a2fe6	0.13494834
18	0x3ce1f9e3	0.027584976
19	0x3cfb4276	0.03067134
20	0x3e0d8123	0.13818793
21	0xbdd7fa8d	-0.10545836
22	0xbc97f5e8	-0.018549874
23	0x3bc0e7df	0.005887016
24	0x3dbfe530	0.09369886
25	0x3d3daf09	0.046309505
26	0x3dc68838	0.096939504
27	0x3cf6d6da	0.030131746
28	0x3d626c61	0.05527914
29	0x3d0c15b2	0.034200378
30	0x3dca935b	0.09891387
31	0x3e0990ce	0.13434145
32	0x3ca9e890	0.020740777
33	0x3db37e5d	0.08764336
34	0x3e988629	0.29789856
35	0xbd4d5be2	-0.050136454
36	0x3e4af1ee	0.19818851
37	0xbc9d4787	-0.019199146
38	0x3daca3fb	0.08429714
39	0x3d7c543d	0.061603773
40	0x3e0c3c08	0.13694775
41	0x3e98b9d3	0.29829273
42	0x3c85f4d7	0.0163521
43	0x3dbb2793	0.091384076
44	0x3dc0b143	0.0940881
45	0x3e47d52f	0.19514917
46	0x3e04ede8	0.12981379
47	0x3e140b63	0.14457469
48	0xbca257aa	-0.019817192
49	0x3d6cc13e	0.057801478
50	0x3db6104e	0.088898286
51	0x3c1d43a0	0.009598643
52	0x3e4623f0	0.19349647
53	0x3e215fe7	0.1575924
54	0x3e4f7851	0.20260741
55	0x3e7c6b56	0.2465032
56	0x3e29414b	0.16528814
57	0x3e676f79	0.22601117
58	0xbd9d0298	-0.0766651
59	0x3e515bac	0.20445126
60	0x3e224b35	0.15849002
61	0x3dc90e0e	0.09817134
62	0x3e5972a4	0.21235138
63	0x3eb56d7b	0.3543509
64	0x3dfc11eb	0.12308105
65	0x3d697615	0.056997377
66	0xbd8654aa	-0.06559117
67	0xbd6e8154	-0.058228806
68	0x3da6b5a8	0.08140117
69	0x3e3b3004	0.18280035
70	0x3ce4e679	0.02794193
71	0x3b67227d	0.003526836
72	0x3e14c1c9	0.14527048
73	0xbc39dfcc	-0.011344861
74	0xbc27be10	-0.0102381855
75	0x3cf41a5d	0.029797727
76	0xbd8891ac	-0.0666841
77	0x3d29ddcb	0.041471284
78	0x3d88e578	0.06684393
79	0x3c4b6457	0.01241406
80	0xbd9f8a43	-0.07790043
81	0xbca2f4d0	-0.019892126
82	0xba4bb9f8	-0.0007771547
83	0x3d5f8943	0.054574262

Full_Connected.4.weight f4 [10, 84]
0	0xbe466343	-0.19373803
1	0xbe3d2a5f	-0.18473195
2	0xbeca169e	-0.3947038
3	0xbef123b4	-0.47097552
4	0xbf1e049c	-0.61725783
5	0xbf3b0bc9	-0.7306486
6	0xbdc36c81	-0.0954218
7	0xbf628852	-0.8848926
8	0xbcbbe337	-0.022935493
9	0xbe81f34a	-0.25380927
10	0xbea2941c	-0.31753623
11	0xbf411f66	-0.75438535
12	0xbe719259	-0.23590983
13	0xbe1661b7	-0.14685713
14	0xbe6e56d0	-0.23275304
15	0xbe8ccf25	-0.2750179
16	0xbbfaf997	-0.007659148
17	0xbf0a8396	-0.54107034
18	0x3cbbc106	0.02291919
19	0xbe4db618	-0.20088995
20	0x3f73a411	0.9517222
21	0x3bc55201	0.0060217385
22	0xbea12789	-0.31475475
23	0xbf09f001	-0.5388184
24	0xbf220fbe	-0.6330527
25	0xbf29797f	-0.66201013
26	0xbe87117e	-0.26380533
27	0xbe08dfe9	-0.13366665
28	0xbdd361b7	-0.10321372
29	0xbeede92d	-0.46466962
30	0xbe22163f	-0.15828799
31	0xbec32603	-0.38114938
32	0x3dfed2ad	0.12442527
33	0xbe88bcb9	-0.26706484
34	0xbe3726ae	-0.17885849
35	0xbe5caa70	-0.21549392
36	0xbf170154	-0.589864
37	0x3ec4c49c	0.3843125
38	0xbf10b292	-0.56522477
39	0xbf3968a8	-0.7242532
40	0x3d5a679e	0.053321473
41	0xbf06de67	-0.5268311
42	0xbeae4853	-0.34039554
43	0xbef699f7	-0.4816434
44	0xbe4134a0	-0.18867731
45	0xbf087d7c	-0.53316474
46	0xbea867e7	-0.3289177
47	0xbe2f654c	-0.17128485
48	0xbf594331	-0.8486815
49	0xbf10437d	-0.5635298
50	0xbef823e1	-0.48464873
51	0xbddb6016	-0.10711686
52	0x3d25e9c7	0.04050615
53	0xbe10b560	-0.14131689
54	0xbda9d1f9	-0.08292002
55	0xbe426c6c	-0.18986672
56	0x3f85b5f7	1.0446156
57	0xbe1a47dc	-0.15066475
58	0xbdf2663e	-0.118359074
59	0xbf4bb3d8	-0.79571295
60	0xbf29fdad	-0.66402704
61	0xbed80a9f	-0.42195603
62	0xbe9600d1	-0.29297498
63	0xbed3395d	-0.41254702
64	0xbf6cea6f	-0.9254522
65	0xbe7c09b8	-0.24613082
66	0xbe5c651d	-0.21522947
67	0xbf8429ec	-1.0325294
68	0xbe8b7e36	-0.2724473
69	0xbf2229cc	-0.63345027
70	0xbe07752d	-0.13228293
71	0xbf17e831	-0.5933867
72	0xbed1faec	-0.4101175
73	0xbf506077	-0.81397194
74	0xbea5a65d	-0.32353488
75	0xbf1e3c73	-0.6181099
76	0xbf2f1385	-0.6838916
77	0xbe3c1a11	-0.18369319
78	0xbe83569c	-0.25652015
79	0xbf142f5f	-0.5788478
80	0xbeadafb4	-0.33923113
81	0xbe8e54ef	-0.27799174
82	0xbfd6f1b6	-1.6792514
83	0xbeb93ae8	-0.36177754
84	0x3f19307e	0.5983962
85	0x3f6454a1	0.89191633
86	0x3edd12db	0.43178448
87	0x3fa9b77b	1.3259119
88	0xbf35b100	-0.70973206
89	0x3d9f246c	0.07770619
90	0x3f1d1eef	0.61375326
91	0x3d0964ea	0.033543505
92	0xbefed117	-0.49768898
93	0x3e81768d	0.2528576
94	0x3ea97aa8	0.33101392
95	0x3e975aea	0.2956155
96	0x3e99639d	0.2995881
97	0x3f5df98a	0.8670889
98	0x3f8f627f	1.1201934
99	0x3e85831c	0.2607659
100	0x3ea6b5ea	0.32560664
101	0x3f1db438	0.61603117
102	0x3ea73090	0.32654238
103	0x3f263915	0.6493085
104	0x3cebc859	0.028782057
105	0xbea6cf7a	-0.32580167
106	0x3e941abc	0.28926647
107	0x3e149e44	0.14513499
108	0xbe1f324c	-0.1554653
109	0x3f01e167	0.5073456
110	0x3f32a309	0.6978002
111	0x3e205ada	0.15659657
112	0x3e5d3fc8	0.21606362
113	0x3e93d476	0.28873032
114	0x3f64e40c	0.8941047
115	0xbe47506d	-0.19464274
116	0x3cd17aeb	0.025571307
117	0x3d8fc441	0.07019854
118	0x3f800083	1.0000156
119	0xbf038d8b	-0.5138785
120	0x3ecca4ac	0.39969385
121	0xbf35809a	-0.70899355
122	0xbd081e94	-0.033232287
123	0x3f557c0a	0.83392394
124	0x3ce33be9	0.027738528
125	0x3fa4b8f3	1.2868942
126	0x3e8ce138	0.27515578
127	0x3e3e8bf3	0.18608074
128	0xbe309ac1	-0.17246534
129	0x3f88d59d	1.069019
130	0x3e8090bf	0.25110433
131	0x3e8416f2	0.25798756
132	0x3f017bf1	0.50579745
133	0xbe88eebe	-0.26744646
134	0x3f108c0a	0.5646368
135	0x3d34eb6b	0.044169825
136	0x3e51a87b	0.20474426
137	0x3f07ab63	0.5299589
138	0x3f7fd5f2	0.9993583
139	0x3ea5f796	0.32415456
140	0xbe7d404a	-0.24731556
141	0x3f59a16f	0.85011953
142	0x3ec376dc	0.3817662
143	0x3f0daf84	0.5534594
144	0x3dcd9239	0.100376554
145	0x3f5242e0	0.82133293
146	0x3f2ea282	0.6821672
147	0x3fcde0f9	1.6084281
148	0x3f75cfe4	0.9602034
149	0x3e294712	0.16531017
150	0x3ea2d4a9	0.31802872
151	0xbf548c1d	-0.83026296
152	0x3f1a15fc	0.60189795
153	0x3e005fcc	0.12536544
154	0x3eb4fc21	0.3534861
155	0x3ea11dd0	0.31468058
156	0x3f496d1c	0.7868211
157	0x3e24b794	0.16085654
158	0xbed6545c	-0.41861236
159	0xbeb85c84	-0.36008084
160	0x3e03e256	0.12879309
161	0x3f6100b0	0.87891674
162	0x3c4f16b2	0.012639688
163	0xbf20cb2b	-0.6281001
164	0x3ea828c0	0.3284359
165	0x3e1ac9b9	0.15116014
166	0x3f1d2633	0.6138641
167	0x3cd257ec	0.02567669
168	0x3ea6b526	0.3256008
169	0xbdceaeaf	-0.10091912
170	0x3c40f8d1	0.011778072
171	0xbd5445c9	-0.051824365
172	0x3e1a6746	0.15078458
173	0x3fdc285a	1.7199814
174	0x3dd6c8b4	0.104875
175	0xbf5fad87	-0.87374157
176	0xbfd25b84	-1.6434178
177	0x3f78c231	0.9717131
178	0x3ed243be	0.41067308
179	0x3eed3b63	0.4633437
180	0x3e71249b	0.2354912
181	0x3f5a3fee	0.852538
182	0x3efda494	0.49539626
183	0x3e7bc679	0.2458743
184	0x3f804dbf	1.0023726
185	0x3da79391	0.08182443
186	0x3ee790e6	0.45227736
187	0xbddee678	-0.10883802
188	0x3f536c07	0.8258671
189	0xbeee202e	-0.46508926
190	0x3de49efb	0.111631356
191	0xbf46acea	-0.77607596
192	0xbe665690	-0.22493958
193	0x3f46403d	0.7744177
194	0x3e596250	0.2122891
195	0x3ea957f3	0.33074912
196	0x3ef0648b	0.46951708
197	0x3f17e2a5	0.5933021
198	0xbe763ee0	-0.24047422
199	0x3fd1457c	1.634933
200	0xbe02835b	-0.1274542
201	0x3e32c379	0.1745738
202	0x3eb59474	0.35464823
203	0x3efdcf61	0.4957228
204	0xbf560817	-0.83606094
205	0xbe8d94bb	-0.27652535
206	0xbe8b4acf	-0.27205512
207	0xbebdb322	-0.3705073
208	0x3cf1a750	0.029498726
209	0xbe86e1d4	-0.26344168
210	0x3c06449c	0.008195069
211	0xbe64775a	-0.22311154
212	0x3eab4de2	0.33457857
213	0xbafa25e8	-0.0019084783
214	0x3f01e3d3	0.5073826
215	0x3b28f00d	0.0025777847
216	0xbf7da668	-0.9908204
217	0x3ea94615	0.3306128
218	0xbe858f0c	-0.260857
219	0xbdbf1017	-0.09329241
220	0x3dedf6bf	0.11619329
221	0x3e0dbf6d	0.13842554
222	0x3f20b8a8	0.62781763
223	0x3d46c502	0.048527725
224	0x3effba96	0.4994704
225	0x3a8570c4	0.0010180702
226	0x3e44b608	0.19210064
227	0xbebcf43c	-0.36905086
228	0xbe8a0544	-0.26957142
229	0x3d2c98e8	0.04213801
230	0xbec7d509	-0.3902972
231	0xbd949a1f	-0.07255959
232	0xbf849fa4	-1.0361218
233	0x3d32cf77	0.043654885
234	0xbd5c08f4	-0.053719476
235	0xbe8fddb6	-0.2809884
236	0x3e05139c	0.12995762
237	0xbe9d27f7	-0.30694553
238	0xbe06b29b	-0.1315407
239	0xbe06b30a	-0.13154235
240	0x3e3c4a36	0.18387684
241	0xbf25b975	-0.6473611
242	0x3fbfdaf7	1.4988698
243	0x3f8a8ba2	1.0823863
244	0xbf262a76	-0.6490854
245	0xbe535930	-0.20639491
246	0x3e50de86	0.20397386
247	0xc02fb8c5	-2.7456524
248	0x3e02f526	0.12788829
249	0x3f00ec62	0.5036069
250	0x3f22f9aa	0.6366221
251	0x3f299d1c	0.66255355
252	0xbdbd577f	-0.09245204
253	0x3d657cc0	0.056027174
254	0xbe2f8fce	-0.17144701
255	0xbe3e290b	-0.18570344

Full_Connected.4.bias f4 [10]
0	0x41004daa	8.018961
1	0xc0a2ae3b	-5.0837684
2	0xbf79fdf8	-0.9765315
3	0xbfba66f1	-1.4562665
4	0x3e84be47	0.2592642
5	0x3f967301	1.1753846
6	0x4023ad50	2.5574532
7	0xc05b4959	-3.4263518
8	0xbedccd5b	-0.43125424
9	0xbf27ca8f	-0.65543455
