LeNet/LeNetModel/model_better.pkl (torch, 36183 bytes, 6 tensors)

Convolution1.0.weight f4 [10, 1, 5, 5]
00000000: 7195 ecbd 6318 ebbe d1cd 063e 22fd a9be
00000010: 3c68 32bf 78d3 12bd 714b b6be 5fd6 cfbe
00000020: 378d 14bf 5023 773e 073a 82be caf3 3fbe
00000030: f599 dabe bc4a ba3d 6537 93bd 7410 b7be
00000040: 687c 39be b86a 77be b66d 8fbd 9070 03bc
00000050: d84c 43be a8c9 92be 5e14 e5be c494 12bf
00000060: 4922 65bf 10f0 03bf 87c4 363c 863a aa3d
00000070: c824 e7be 248d 2ebe 22b4 c63d 936d 603d
00000080: b8f0 0a3d 52a0 413e a1b9 7fbe bbc4 ef3d
00000090: 29ff 373f e22a 853e 7a0b adbe 158f 32bf
000000a0: d64d f6bc d6ab 8b3e ea93 443b 8a18 fbbe
000000b0: 726f fbbe 024b 57bf e6b8 5cbf 09bc 1dbf
000000c0: c96d a73c 3428 f6be 812d 48be 9e64 53be
000000d0: 67e0 57be 4e8f cf3d 9e52 d33e 2913 0dbf
000000e0: 5a53 23bb ee31 d6be 3d95 a8bc ec98 6a3e
000000f0: 79ab 16bf 23aa 25be 5a64 50bf e1ff 95bf
00000100: 3a2d bcbe b341 b03d 6ffa 8c3e 097c 0c3f
00000110: 00dc fabd 706b a1bf 3499 35be 89e1 cbbd
00000120: 696e 4bbe bf32 6b3f f810 c03e 8199 0b3d
00000130: 7e57 c23c dcbf 9a3e aa7a 05be 36e5 35bf
00000140: 3e5f 1dbd bae7 c7bd e6f2 81be d0ab 30bf
00000150: f3fc 54bf 9eba 23bd 6f1f 8dbe 3161 29bf
00000160: f00a e43d 0967 38be 4237 42bf 1b6d 98be
00000170: d0de 3abe 5a54 b5bc 656e 073f 8ac4 5fbe
00000180: 066c 09bc 50b7 94bb fe0c 423f f31f 463d
00000190: ac05 1bbe f665 3dbd 2ee6 fa3e 5c13 a7bd
000001a0: ef8e 82bf 95c7 3a3d f431 16be 6b15 ad3e
000001b0: 6eef 093f ba75 873d 7dca 81be 94e8 113e
000001c0: 7342 e3be 96f0 a43e edc6 0d3e e1f0 17bf
000001d0: 1dd8 0fbf b145 06bf 1b97 a13e abdf e63e
000001e0: e355 a8be 45a0 fa3d 33fe 4bbf e05e 38bf
000001f0: 873a acbe e6eb 683e 87b9 433f 864e 203f
00000200: 7ca2 7cbb cfb4 b83e 5c07 67bf 7ff0 c5bc
00000210: c4ee 06bd 192e dd3e 9fad 6bbf 410e 2cbf
00000220: 4ce2 55bf 2171 1dbf 2732 38bf a4bb 69bf
00000230: 1669 423e af45 5c3c 6a83 b1be bc65 213e
00000240: ce9a 643e 9acd 3abd f358 9fbd 7f24 043d
00000250: 1100 dabd 0918 17bd 32a5 ae3e 9c80 9d3e
00000260: 4059 09be f3d1 a93e e51d 2dbe dd70 263f
00000270: 5950 d1bf b26a 0ebf 1827 363e 80a9 e63d
00000280: 1ca6 25bf cca6 cbbe 747c 253f 3010 573e
00000290: 2233 4f3d 316a f43b 71c0 5c3f 91b0 3a3f
000002a0: 98c4 09bd 2ae6 bbbe 6376 603e dd88 26be
000002b0: f796 09bf 75ad b2be 20e9 ecbc b4e2 80be
000002c0: be52 91bf 808e 00bf 4ad9 88be 446a a5bd
000002d0: 1b7d 173e 5b4e c33d 315f 2cbf 722b 12bf
000002e0: 9985 08be d042 d73e 6fd3 fe3b f5a1 bd3d
000002f0: d968 f1be a576 ebbe 9d05 d13e 6d8e abbe
00000300: 77a4 a13c 9b96 61be 2b04 b5be 88e0 053f
00000310: 2b4f 73be 0647 973e d818 dabe 3739 6cbd
00000320: 2131 9b3e f3a1 573d 7d27 bcbd ae47 c6ba
00000330: 8ccb c3bc f135 29be 6c57 13bd 1ab1 2f3e
00000340: 3165 97be 255d acbe 0c15 a1be 47f0 743e
00000350: fa84 8a3e 3a74 c4be 94c2 f2be 8c64 1abf
00000360: 10c6 20be 50f6 4f3f e25c 24bd 1795 65be
00000370: 828a 30bf c579 8ebe ae9f 413e 7705 ce3e
00000380: 575c 68be 7c7c af3e b0fa d0be 5499 edbe
00000390: 2965 cbbe 7643 e1be d0cd f53e 8dc0 e6bd
000003a0: 6219 6cbf b54c f2be 4d33 823d c667 bc3d
000003b0: b41e ffbe 2de0 36bf 0fb2 4fbe dff9 ea3e
000003c0: b0b3 dbbd 794f 2dbf ab67 c0bd da6b 223e
000003d0: 9a67 cd3e 38f2 3ebe 2005 40bf 6b8f cbbe
000003e0: d8e6 f9be 0fe5 9a3e
-0.11551941 -0.45917043 0.1316445 -0.33200938 -0.696903 -0.035846204 -0.35604432 -0.4059324
-0.58027977 0.24134564 -0.25434896 -0.18745342 -0.42695585 0.09096286 -0.071883 -0.3575474
-0.18113863 -0.24161804 -0.070033476 -0.008022442 -0.19072282 -0.28669477 -0.447421 -0.5725825
-0.8950544 -0.5153818 0.011155254 0.08311944 -0.4514525 -0.17046028 0.09702326 0.054791998
0.033920974 0.18908814 -0.24973156 0.11707445 0.7187372 0.2600928 -0.33797818 -0.69749576
-0.030066412 0.27279538 0.002999539 -0.4904216 -0.49108464 -0.8409883 -0.8621963 -0.61615044
0.020438092 -0.48077548 -0.19548608 -0.20643851 -0.21081696 0.10134755 0.4127397 -0.5510736
-0.0024921508 -0.41834968 -0.020578975 0.22909898 -0.58855397 -0.16178183 -0.81403124 -1.1718713
-0.36753255 0.08606281 0.27534816 0.5487676 -0.12248993 -1.2610912 -0.17734224 -0.09955127
-0.19866337 0.9187431 0.37512946 0.03408194 0.02372336 0.30224502 -0.13035074 -0.71052873
-0.03842091 -0.09760995 -0.2538063 -0.69012165 -0.8319847 -0.039972894 -0.27563044 -0.6616393
0.11134899 -0.18008055 -0.75865567 -0.2977074 -0.18249059 -0.022134949 0.52902824 -0.21852317
-0.008387571 -0.004538454 0.75801075 0.048370313 -0.15138882 -0.046239816 0.49003738 -0.081579894
-1.019987 0.045600493 -0.14667493 0.33805403 0.53880966 0.066142514 -0.253498 0.14248878
-0.44386634 0.32214803 0.13845415 -0.5935193 -0.5618914 -0.5245009 0.31560597 0.4509252
-0.32878026 0.122376 -0.7968475 -0.7201977 -0.33638403 0.22746238 0.7645497 0.6261982
-0.0038548997 0.36075446 -0.90245605 -0.024162529 -0.03294255 0.43199232 -0.920618 -0.6720925
-0.83548427 -0.61500746 -0.71951526 -0.9130194 0.189854 0.013444348 -0.34670573 0.15761465
0.22324678 -0.045606233 -0.077806376 0.032261368 -0.10644544 -0.036888156 0.3411041 0.30762184
-0.13412952 0.3316799 -0.16905935 0.65015966 -1.6352645 -0.55631554 0.1778835 0.11262798
-0.6470659 -0.39775693 0.64643025 0.21002269 0.050585873 0.007458948 0.8623114 0.7292567
-0.033634752 -0.3669904 0.21920161 -0.16263147 -0.5374598 -0.34897962 -0.028919756 -0.2517296
-1.1353376 -0.5021744 -0.26728278 -0.08076909 0.14793818 0.095364295 -0.6733275 -0.5709754
-0.13332213 0.4204316 0.0077766697 0.092594065 -0.47150305 -0.45988956 0.40824595 -0.335071
0.019731743 -0.22030108 -0.35354742 0.5229573 -0.23760669 0.29546374 -0.4259708 -0.05767175
0.3031092 0.05264468 -0.09187219 -0.0015127563 -0.02390077 -0.16524483 -0.035972044 0.17157403
-0.2956939 -0.33664814 -0.3146137 0.23919784 0.27054578 -0.38369924 -0.47414076 -0.6030967
-0.15700555 0.8123522 -0.040127642 -0.22420155 -0.68961346 -0.27827278 0.18908569 0.40238544
-0.22691475 0.34274662 -0.4081626 -0.46406043 -0.39725617 -0.4399678 0.48008585 -0.11267195
-0.9222623 -0.47324148 0.06357441 0.09199481 -0.49828112 -0.71435815 -0.20282768 0.45893762
-0.10727632 -0.6769939 -0.09394773 0.15861455 0.40118104 -0.18647087 -0.7500782 -0.39757857
-0.48808932 0.30252883

Convolution1.0.bias f4 [10]
00000000: c3f8 b7bf 41fa ffbf c518 13c0 2c5f f9bf
00000010: 5ea0 07c0 1946 17c0 5f70 2fc0 d2f9 04c0
00000020: 0cd4 00c0 64e9 20c0
-1.4372791 -1.9998246 -2.2983868 -1.9482169 -2.119163 -2.3636534 -2.7412336 -2.0777478
-2.0129423 -2.514245

Convolution2.0.weight f4 [20, 10, 5, 5]
00000000: ab29 43bd 2af9 acbd 43f2 73bd f098 cdbd
00000010: 2915 c0bd 0af6 6ebd 622a 88bd 271e f8bd
00000020: fafe 98bd 2b55 17be 4a79 74bc 25ad 5ebd
00000030: 5560 91bd 2369 04bd 8273 b0bc 6714 d1bc
00000040: 9af5 c0bd 459e 9ebc 66a4 22bc 6dbb e0bd
00000050: ff3b 4dbd 5d49 533b 52bf a03b 596d 8ebd
00000060: 1899 b93c f668 d5bc 837d 4dbd 4dee dfbc
00000070: 443c d2bd 0e8d 9bbd 8be0 62bc f024 39ba
00000080: 3154 94bd 7ac8 75bc ec63 cebd 03c2 8fbd
00000090: 8f14 f6bc ef9d a4bc 8b4b 8abd 9ac6 b2bc
000000a0: 78fe b23c 789d 7fbd da03 97bd c5f4 38bd
000000b0: 5d0e d3bc 2d28 a43d 246c a6bc b7ba 65bd
000000c0: 3d02 e73c 6764 5abd 3c2d 08bc 518a 1f3d
000000d0: 43b9 44bd ba00 e9bc f1cb f2bc 146e cebc
000000e0: 042b 513c d6d9 343d 6c00 8e3c fb1a ce3c
000000f0: 6bd8 65bd fae6 5f3d 3bd0 f63c 92e4 b3bc
00000100: c9ab 52bd 3642 cf39 ba67 77bd 0ac4 0b3d
00000110: 3426 bbbc 3df9 82bd 21b6 cbbb bdb5 83bb
00000120: b875 193d 3508 16bc 82b7 24bd 488f 25be
00000130: 8271 11be aa2f c2bd e2e9 42be 2a8f c6bd
00000140: 9cd9 b2bd 46b8 22be c3ef e4bd 369d c1bd
00000150: 13e6 45bc deed f5bc 5885 9dbd 3c53 b7bd
00000160: 0146 9bbc 91f3 1f3d 0a66 7f3d 1c38 553d
00000170: 8f55 a93b e839 5ebd 6beb fc3c 7c29 823d
00000180: 8796 71bb da3f c8bd e63b 5fbb 6b88 ef3b
00000190: 5340 a9bd daf2 3bbe 1991 8cbd 3b48 a2bc
000001a0: ef14 1dbd 73ed f0bd c178 dbbd fd89 1fbe
000001b0: 5c02 0ebe 68ae 0ebe 2db7 9dbd 52cd e4bd
000001c0: ecd1 01be b3ab a3bd 794b eebd 0f11 dabd
000001d0: 3df0 23be dd99 71bd bffe 8cbd af45 cfbd
000001e0: f8ba 9cbc 73a0 89bc 04c3 eabc eb1d a2bd
000001f0: 7d53 86bd 38b9 cd3b 71f0 4a3c 1369 0f3d
00000200: eace 413c 53a1 71bd a4d3 153d 3782 afbc
00000210: a737 97bc 5342 cb3c 6df8 ec3c 52fb 563c
00000220: 9f8d d2bb 1e72 9ebd 39f2 9c3c f344 bebd
00000230: 65f4 76bd 51fa c9bd a5ef 73bd 0396 6b3b
00000240: 51d1 b1bd 6632 cebd 23bd c5bd 97b0 79bd
00000250: aec4 55bc 9ba3 0dbb ac26 9dbd 06c5 b9bd
00000260: 71d3 a63b 4113 24bd 089a aabd afca 613c
00000270: 4425 0d3c 90a5 8cbd eabd 82bd 30c6 3dbd
00000280: 9a81 a33c 5d33 bd3c 14dd 81bd ef9f d93c
00000290: 9cf3 90bc f162 55bd 7fa6 10bd 10fd 773d
000002a0: 756e 4f3d 8437 ddbc 207a 2c3d d14d 69bd
000002b0: d896 103d c300 3ebd de86 d13c 4d1c 2cbd
000002c0: 4780 b4bd 0962 cfbb bb42 cfbd 3ef0 4bbd
000002d0: bbd8 0abd 8f1e efbd cd0d a53b 827c 33bd
000002e0: be67 babd 78e1 a8bc 0342 e4bd d703 70bb
000002f0: a410 df3c f529 8ebb c39e 5dbd 0f85 133c
00000300: d5ca 79bd 5f95 95bd b593 35bd a1bc 4f3d
00000310: 0660 693d a7f5 f63c 399e f6bb 1604 35bd
00000320: dd5a dcbd 75f9 873b d552 5fbd 2140 c7bd
00000330: 044c 60bd 8770 b6bd ece2 c7bd 5857 cebc
00000340: c3f6 463a 40c5 fbbc 48af 093c 011b 463b
00000350: 6629 b6bc b2df 943c 0304 b8bc e1ee 343c
00000360: 129d 7cbd 8e14 80bd 4e0f a9bc c248 623c
00000370: 8340 6cbd 61bf 8ebc 56bf 25bd 147c 9ebb
00000380: 0067 cdbc 1f4c 363d c1aa 2e3d 016d 343c
00000390: f5f7 98ba 5457 5dbd e1de 7fbd 15bb c7bc
000003a0: 18c9 8fbd 647f 1abd 268d 5a3d 583d d8bc
000003b0: a767 c13c dcaa 813c bcfe 7e3c f7dc 6dbd
000003c0: 8c6d 9bbd 7365 b8bd 2fb4 a4bd 2778 9fbc
000003d0: 872e 873c af05 a7bd 82f9 66bd bde0 98bd
000003e0: 6c7f 72bd 7e07 66bc 7f81 273e 193f cabd
000003f0: 7a77 a2be a2ef ecbe a5ad 01bf dd1d c5be
-0.04764716 -0.08445962 -0.05955721 -0.10038936 -0.09379036 -0.05834011 -0.06648709 -0.12115126
-0.07470508 -0.14778583 -0.014921496 -0.054364342 -0.07098452 -0.03232683 -0.021539453 -0.025522424
-0.09421845 -0.019362578 -0.009926891 -0.10973249 -0.050106045 0.0032239773 0.0049056197 -0.0695445
0.022656009 -0.026051026 -0.050168525 -0.02733531 -0.10265401 -0.075952634 -0.0138474805 -0.0007062694
-0.07242621 -0.015001411 -0.10077652 -0.07019427 -0.0300391 -0.02009484 -0.0675269 -0.021823216
0.021849856 -0.062406033 -0.073737815 -0.045155305 -0.025763685 0.080154754 -0.020315237 -0.05608627
0.02819931 -0.053318407 -0.008311566 0.03895027 -0.04802824 -0.02844273 -0.029638262 -0.025198974
0.012766603 0.044153057 0.017334186 0.02515935 -0.056114595 0.054663636 0.030128589 -0.021959577
-0.05143336 0.00039531448 -0.060401656 0.034122504 -0.022845365 -0.06395195 -0.00621678 -0.0040194676
0.03746578 -0.00915723 -0.04021407 -0.16167939 -0.14203456 -0.094817474 -0.19034532 -0.09695275
-0.08732912 -0.15890607 -0.111785434 -0.09453814 -0.01207878 -0.03002065 -0.07691449 -0.089514226
-0.018954279 0.039050642 0.06235317 0.052055463 0.00516767 -0.054254442 0.030873975 0.06355569
-0.0036863403 -0.09777804 -0.0034062802 0.0073099635 -0.08264222 -0.1835436 -0.06863613 -0.019809833
-0.038350042 -0.1176404 -0.10716391 -0.15579982 -0.13868088 -0.13933718 -0.07700954 -0.11171974
-0.12677735 -0.079917334 -0.11635489 -0.10647785 -0.16009612 -0.058984626 -0.068845265 -0.10120713
-0.019132122 -0.016800141 -0.028657444 -0.07915863 -0.06558893 0.0062781833 0.012386427 0.035012316
0.011829117 -0.05899174 0.03657879 -0.021424396 -0.018459154 0.0248119 0.028927052 0.013121443
-0.006425574 -0.0773661 0.01915847 -0.09290495 -0.060291667 -0.09862197 -0.059554715 0.0035947568
-0.08682502 -0.100682065 -0.096552156 -0.060959425 -0.01304738 -0.002161241 -0.07673392 -0.09070782
0.0050911237 -0.040057424 -0.083301604 0.013781234 0.008614842 -0.06867516 -0.063838795 -0.046331584
0.01995926 0.023095781 -0.063409954 0.02656552 -0.017694287 -0.05209631 -0.035315033 0.060544074
0.05064245 -0.027004011 0.042108655 -0.056958977 0.035300106 -0.046387445 0.025577005 -0.042019177
-0.088135295 -0.0063288254 -0.1012015 -0.04978966 -0.033898097 -0.116757505 0.0050370456 -0.04381991
-0.091018185 -0.020615324 -0.11145403 -0.0036623382 0.027229615 -0.0043384978 -0.054106485 0.009003892
-0.06098445 -0.07303881 -0.044330318 0.050717 0.05697634 0.030146433 -0.007526186 -0.04419335
-0.10759518 0.0041496106 -0.054522354 -0.097290285 -0.054759994 -0.08908182 -0.09760079 -0.025188133
0.0007589871 -0.030733705 0.008403607 0.0030228498 -0.022236537 0.018173072 -0.02246285 0.011043281
-0.06167323 -0.062539205 -0.02063718 0.013811292 -0.05767871 -0.017425241 -0.040465675 -0.0048365686
-0.025073528 0.04450619 0.042643312 0.011012317 -0.0011670577 -0.05403836 -0.062468413 -0.0243812
-0.070207775 -0.037719145 0.053357266 -0.026396438 0.023608996 0.015828542 0.015563663 -0.058072057
-0.07589254 -0.09003725 -0.0804218 -0.019466473 0.016501678 -0.08155381 -0.056390293 -0.074647404
-0.05920355 -0.014039872 0.16357993 -0.09875316 -0.31731778 -0.46276575 -0.50655586 -0.38499346

Convolution2.0.bias f4 [20]
00000000: e31e dbbd c2c1 cabe f6fb 9bbd adf1 d0bd
00000010: d420 93bd 80da fabd 54fa 56bd baf6 be3e
00000020: 8db0 babd 5d13 e73d 6340 0c3c 31e1 53bd
00000030: 9e2d 36be 9cde 12be 9c7d 403e 2462 22be
00000040: 64af 1bbd 4a18 26bf aa20 aebd c898 7cbc
-0.106992505 -0.3960095 -0.07616417 -0.10202346 -0.07183996 -0.12248707 -0.052484825 0.37297612
-0.09115706 0.1128299 0.008560273 -0.05172843 -0.17790839 -0.14342731 0.18797916 -0.1585775
-0.038009062 -0.6488081 -0.08502324 -0.015417285

Full_Connected.0.weight f4 [10, 320]
00000000: 1b49 14bd c3e3 683b 88d3 e7bd c885 90bd
00000010: e385 48ba 7f1d a2bd bd2f 2ebe 93d7 85bd
00000020: fe90 5abd 1064 d4bc 0c3c cb3c 2531 223d
00000030: ddea b1bd a5cb d7bb 942c bd3d 9ef6 a03c
00000040: fae6 76be a492 953d e1e4 353e a959 b13d
00000050: ec54 133e 36a7 90bc 8952 493e 6c9f d73e
00000060: c0d1 2cbc 3f20 65be c31f d9bd 2c61 f03e
00000070: bb5c 79bd 0495 f1be 5cbb 01bf 15d0 71bc
00000080: 1f3d 473e e69d 593d fb5d d4be f33a 29bf
00000090: 6d33 2fbe d279 95be f537 2b3e 4808 e5bd
000000a0: 6976 f8be 0603 b63d b778 023e 4a0d 393d
000000b0: 6e62 a8bb e562 1c3c dff2 503b 2f82 ea3e
000000c0: 5d8f c83c 4152 cd3c b74b ee3d 5f23 393e
000000d0: 8ebf b73d fa7d 143d e26a 81bc 431f 1e3e
000000e0: e7c7 033d 44e2 8b3d 05f4 e8bc 03fa 5c3c
000000f0: 1a51 ba3d 26af 433e cdc5 8f3d f198 26bc
00000100: 6f96 b13c 5733 1a3e 2132 933d 6544 923b
00000110: 3e09 1b3d 2e87 433e 8d5b 523d 7ad9 85bc
00000120: ec38 b43d 1878 b03e 820b a23c 20af eb3d
00000130: 9f74 f33d 474c 8c3e c710 083b 4a52 053e
00000140: 690d 173c 9372 343d 94c6 1e3d 655c 50bb
00000150: d017 3b3e 3fc6 1bbb 2063 c8bd 18d7 e83c
00000160: 431a 1e3e 302f 1c3c cdaa c3bc 8e61 673e
00000170: ab57 a33d 6def bcbd 05f7 e33d ac4a 1e3e
00000180: 0b62 443d 0fd1 8f3d 6d2f 033e d3ad b63d
00000190: 1280 1b3c 8f1a eabc d1e2 e5bd 0ac7 833d
000001a0: 2ca4 293d cc2d be3d d69d c9bd 212e 6a3b
000001b0: ec3d a33e 9620 b53e afaf ab3d 9ca1 293b
000001c0: cec5 493d bf8a 03bc 08e9 2f3e 4508 e3bd
000001d0: fa3f d43e ee85 e33d 1ffd 513e 9ac7 9f3c
000001e0: 9f54 013f 7594 c03e 7b3b cbbe 70c4 0fbe
000001f0: fa9d 263f be70 6c3f ec11 02be f5b5 8c3c
00000200: d346 e2bc c718 eabb faa9 6e3e 299b 9b3e
00000210: d5fe bcbd 2e5e 7f3d 168e ba3e 92bc cd3e
00000220: f5b4 14be c7b6 a2be ff26 75be 4c1c 0dbe
00000230: 6a61 de3d 57b8 ebbd b562 3dbe 22a6 36bd
00000240: cade bf3e 36cd e2bb ef25 e5bd 2961 4cbe
00000250: bed8 bf3e fa01 17be 359a a3be 99a8 5d3e
00000260: d93c 7f3e fa3e c8bd 8cf1 e23e 0efa f03d
00000270: 2041 a1be 1fbc d9be 7209 fa3d 65c2 863c
00000280: 3403 833d f470 a83d 56f9 9f3d 28a1 a33d
00000290: 5725 e33d f68e 0c3e 8719 e9bd 27fd 83bd
000002a0: 1535 473e b6f8 203e bf99 4cbd 4502 b9ba
000002b0: 1ab9 993d 63e5 303d d200 0c3e 8fd9 2a3e
000002c0: 8057 ddbe 3b1c 20be d20c 793e 056a 39bc
000002d0: 6c52 acbd 3d9d febd 5edb 033f 65ca 14bf
000002e0: 3d16 49bd 5d3a ac3d 4f0e f13c 01c0 52bf
000002f0: e73f 183e 6ee1 7fbd 49ec eabd a173 753d
00000300: c077 b6bb 2b55 b53c 0eba dfbd e14f 2abe
00000310: 87d2 d63d c340 103e 0e09 e7bd ad38 cbbd
00000320: 63dc c73d 02b5 c6bc e67d 18be 584a ce3d
00000330: f692 ef3c edf9 0ebe 01f1 fcbd c35a 06bd
00000340: 269b 3c3d c744 313d 0b4e 5a3d 98a3 863d
00000350: bc56 2f3d c5b8 94bd 2c91 203c 8ce0 9d3d
00000360: ba03 423d 921c b1bd d8eb d0bd e39e 613c
00000370: ebb0 0b3e 60e5 c23d c87e f03d e4a5 0fbd
00000380: 3c2b 403d 454e 20bd 590f 603e e82e 623e
00000390: ccde 0b3d a580 df3d 760f 893e 7720 bbbc
000003a0: 9e45 d93c 22ca 913d bc05 3ebe 3260 d7bb
000003b0: fbae e43d 489f 8abe c9c3 e8be 8ed0 69be
000003c0: 6b4d 63bd 47c6 3fbc 9c09 13bd cb5a 88bd
000003d0: b4cb bd3c 4835 8c3d 7363 133d af08 29be
000003e0: 0064 94bc 621d 813d 4085 24bd cb1c aebc
000003f0: 21de cdba 9052 ec3b 13a6 e9bc 4363 613d
-0.03620253 0.0035536147 -0.11319643 -0.07056767 -0.0007649345 -0.07915782 -0.17010398 -0.06535258
-0.05336093 -0.02592662 0.024808906 0.03959765 -0.08687375 -0.0065855556 0.09237018 0.019648846
-0.24111548 0.0730336 0.17763092 0.086596794 0.14387864 -0.017657857 0.19660391 0.42113817
-0.010548055 -0.22375582 -0.10601761 0.46949136 -0.06087945 -0.47184002 -0.5067651 -0.014759083
0.1945691 0.0531291 -0.4147795 -0.66105574 -0.17109461 -0.29194504 0.16720565 -0.1118322
-0.4852784 0.088872954 0.12741362 0.04517869 -0.005138687 0.009545063 0.0031883044 0.45802447
0.024482423 0.025063636 0.11635535 0.18079899 0.08972083 0.036252953 -0.015798036 0.15441613
0.032173064 0.06830266 -0.02843667 0.013487342 0.090975 0.19109783 0.070201494 -0.0101683
0.021678178 0.15058647 0.07187296 0.0044637197 0.03785061 0.19094536 0.05135684 -0.016339052
0.087999195 0.34466624 0.019780878 0.11508012 0.11887478 0.27401945 0.0020761953 0.13019672
0.009219506 0.04405458 0.038763598 -0.0031793353 0.18270802 -0.0023769287 -0.097845316 0.028422877
0.15439706 0.009532735 -0.023885155 0.22595808 0.07975706 -0.09225354 0.111310996 0.15458173
0.047945064 0.07022297 0.1281106 0.08919873 0.009490984 -0.028577117 -0.112249024 0.06434448
0.041416332 0.09286079 -0.09844558 0.0035733061 0.3188318 0.35376424 0.08383118 0.002588368
0.049260907 -0.008028685 0.17178738 -0.11085562 0.4145506 0.111095294 0.20506714 0.019504357
0.50519747 0.37613264 -0.39693817 -0.14039779 0.65084803 0.9235953 -0.12702149 0.017176608
-0.027621662 -0.007144067 0.23307028 0.30391815 -0.09228293 0.062345676 0.36436528 0.4018293
-0.14522155 -0.31780073 -0.23940657 -0.13780326 0.10858424 -0.115097694 -0.18494685 -0.04459203
0.37474662 -0.0069214357 -0.11188876 -0.19958939 0.3747005 -0.14746848 -0.31953588 0.21646346
0.24925555 -0.09777637 0.4432491 0.11766444 -0.31495 -0.42526338 0.12208833 0.016450116
0.06397095 0.08224669 0.07811229 0.079897225 0.110911064 0.1372641 -0.11381822 -0.06444769
0.19453843 0.15719876 -0.04995131 -0.0014115056 0.075060084 0.04318751 0.13672188 0.16684555
-0.4323082 -0.15635769 0.24321297 -0.011316781 -0.08414158 -0.124323346 0.515066 -0.5812133
-0.049093474 0.084095694 0.029425768 -0.82324225 0.14868127 -0.062470846 -0.11470849 0.059924725
-0.0055684745 0.022135338 -0.10924159 -0.16632034 0.10489374 0.14087205 -0.11281024 -0.099229194
0.09758832 -0.024256233 -0.14891776 0.10072774 0.029244881 -0.13962527 -0.12350655 -0.0328014
0.0460464 0.04327848 0.053297084 0.06574172 0.042807326 -0.072618045 0.009800237 0.077088445
0.047366835 -0.086480275 -0.102012336 0.013770792 0.13641708 0.09516406 0.117429316 -0.035070315
0.04691623 -0.039137144 0.21880855 0.22088206 0.034148023 0.10913209 0.26769608 -0.022842629
0.026522454 0.07118632 -0.18556875 -0.0065727467 0.111661874 -0.27074647 -0.45461872 -0.22833464
-0.055493753 -0.011704988 -0.035897836 -0.066579424 0.023168422 0.068461 0.035983514 -0.16507219
-0.01811409 0.063044325 -0.04016614 -0.021253964 -0.0015706458 0.0072119907 -0.028521573 0.055026304

Full_Connected.0.bias f4 [10]
00000000: 5742 f03e 0701 8b3f 9d0e 20bf ac1b be3e
00000010: 3070 ffbd 91b0 86bc 7b3a 11bf b0a6 9f3e
00000020: 0acf a2be 5b63 0ebf
0.46925613 1.0859689 -0.625223 0.37130487 -0.1247257 -0.016441615 -0.5672986 0.3118186
-0.31798583 -0.55620354
